case/rnn.pth (torch, 3063 bytes, 5 tensors)

rnn.weight_ih_l0 f4 [16, 1]
00000000: b54a bcbe 7b1e bd3e 7fcc c43e 8afc 84be
00000010: 3d5e 083f 3f1f 85be a147 193f b563 89be
00000020: 040f c33e 7681 92be e9b5 e9be cff1 cbbe
00000030: a7ef 873e d931 893e f35a 883e 3c46 9b3e
-0.36775747 0.36937317 0.38437268 -0.25973922 0.53268796 -0.260004 0.5987492 -0.26833883
0.38097394 -0.28614396 -0.456466 -0.39832923 0.26550028 0.26795843 0.2663189 0.30327022

rnn.weight_hh_l0 f4 [16, 16]
00000000: 3e75 59bd bc9e 593d e024 553d baf8 1ebe
00000010: ad38 9e3d 9ee4 12be 2686 2abd 57e5 b3bd
00000020: 6193 023e bcfe d9bd 4ed8 26be 235d 12be
00000030: 3539 513e 80f0 fc3d af65 4a3e 23c7 8f3d
00000040: 97a7 4f3d 4e8b 51bd 3f34 52bd f311 1f3e
00000050: 8b13 a0bd bfbf 143e a5ec 2d3d 6c3c b03d
00000060: 9d08 02be 615c da3d 3613 293e bc3d 143e
00000070: 2213 50be 5e2c 00be 7bb0 4bbe f3ac 8fbd
00000080: cb09 913d f00d 96bd b658 93bd 9a25 253e
00000090: 9cba 74bd 25b7 1b3e 4555 313d f5e4 bc3d
000000a0: d1a5 15be 8e42 eb3d 144e 1f3e d5bd 263e
000000b0: d2c1 58be 0a5e 07be f518 53be 62e7 a5bd
000000c0: 36aa 093d c648 09bd 8185 f4bc 99cb 673d
000000d0: ea32 3e3e 1b59 823d 3b3d b73d 3496 ac3d
000000e0: aa6a 13bd a46f a03d 7b6e 9c3d eeaf e13c
000000f0: 792b 1dbd 87c3 8fbd 49bf 29bd c880 b3bd
00000100: c26e 403e 33e7 41be 81e7 36be c142 473e
00000110: 269f a93e 34c7 423e 56c5 5d3e 8bba 243e
00000120: 4a77 5ebe 05f4 373e a798 6f3d db69 513e
00000130: 5146 67be f613 3cbe 16d7 62be 196c 28be
00000140: 1478 b13c 505a c3bc 2830 96bc d0db 463d
00000150: f9bb 493e 8dba 5b3d cc7d c53d 9fae a03d
00000160: 4412 c2bc c1c6 913d 90bd 953d 5057 7b3c
00000170: 196f f8bc cb3e 83bd 19e0 07bd a3cd afbd
00000180: b4ba ac3e 537a aebe 8fc5 a0be b556 b23e
00000190: 57e3 ce3d b00f ae3e 24aa 303e f663 803e
000001a0: 2de5 d6be 7553 9d3e 625f 303e 78d8 d43e
000001b0: a0f6 dabe 7a48 a3be 0996 d8be 9b12 82be
000001c0: 7657 1fbd 57a8 1f3d dd5f 2b3d e5db 983b
000001d0: e2a2 903e 6291 453c 77a4 1c3e 13b8 2e3d
000001e0: 01db 2d3d 92c2 cb3c 2b72 883d 7de6 56bd
000001f0: 12e5 a03c 816a a7bc 47cd 8a3c c9c8 1fbd
00000200: a983 643b 60d3 bebb be3f d8ba 4f28 c53d
00000210: a6eb 48bc 42ca b73d b2ac 973d d577 273d
00000220: ae39 81bd 7953 603d 3e19 6d3d 311c 973d
00000230: 5e51 0cbe 12dd 8ebd df65 08be 55d4 dcbc
00000240: 75c2 94bb 5468 a23b 635a de3b 27a9 77bc
00000250: 8487 683e 0b75 2ebc 2809 be3d 7c64 c43c
00000260: 53dd a03c 1ca1 673c 843f 333d cdab ecbc
00000270: f603 2a3d 3ecc 58bb dd2a 1e3d 64e1 09bd
00000280: c052 fb3e d195 fbbe 1115 f3be 4bc1 8a3c
00000290: 7b9e 8bbe 425a f23c fbc0 e3be 7291 c13d
000002a0: 2f0b 9dbe 19f1 df3d 4779 863e 8cc8 8b3e
000002b0: 5d73 f63c 04c4 87bd 2883 b33c 729c 0cbe
000002c0: 71a7 6a3c bec7 71bc 67a1 77bc 9679 b9bd
000002d0: e184 b5bc bce8 a9bd 788c d6bd 784f 12bd
000002e0: 704a 4c3d ec32 42bd 14c1 fcbc 16c7 79bd
000002f0: 7376 073e ddd2 803d 419e 033e da26 b03c
00000300: 3264 bebd ed64 c23d a79c af3d 9632 a1bd
00000310: d8ed e8bd b243 aabd 9872 e9bc 024a d3bd
00000320: 07c0 bc3d bc9c d8bd b809 a5bd 17df b0bd
00000330: 1d8b 883d ef51 c23d 14b7 8d3d 25bb e33d
00000340: e2d1 fdba 441e 553b 4cb9 46bb ef93 d6bc
00000350: 5da7 5cbe 1eaa fbbc d384 d7bd 70e3 70bd
00000360: c2c4 91ba 15ae 43bd d487 76bd 5a6e 2e3c
00000370: 1f62 e63a 0ca2 213d 0dc5 933b 81dd 793d
00000380: 403b b0bd 117c b13d e6bf a13d f54a 98bd
00000390: 1178 f1bd f9ea a3bd 171e 0abd dfed c8bd
000003a0: 01c7 ad3d f7a6 d0bd ed5f a2bd d5c4 a0bd
000003b0: ac55 7c3d b0e6 b53d 9eac 793d c5ab db3d
000003c0: 9394 c73c 0c08 c0bc 9024 bfbc 8db8 6c3d
000003d0: 9999 90be ebe3 593d 02b3 dabd 7353 4d3c
000003e0: 2f6b 46bd 6c2b de3c 0905 31bd 6149 6f3d
000003f0: 2350 b4bd af1b 1bbd 1b67 a9bd daf0 15bc
-0.053090326 0.053129897 0.05203712 -0.15524569 0.07725654 -0.14345023 -0.04163184 -0.087839775
0.12751533 -0.1064429 -0.16293451 -0.14293341 0.20431979 0.12350559 0.19765352 0.07020404
0.050696936 -0.051158242 -0.051319357 0.15534191 -0.078162275 0.1452627 0.04246201 0.086052746
-0.12698598 0.10662151 0.16511235 0.14476675 -0.20319799 -0.12516925 -0.1989154 -0.07015409
0.07081946 -0.07326877 -0.07194655 0.16127625 -0.059748277 0.15206583 0.04329421 0.092233576
-0.14614035 0.11487304 0.15557128 0.16283353 -0.21167687 -0.13219467 -0.20614989 -0.081007734
0.03360959 -0.033516668 -0.029848816 0.05659065 0.1857411 0.06364652 0.08947226 0.084270865
-0.035990395 0.07833794 0.0763826 0.02754971 -0.038371537 -0.07019716 -0.04144219 -0.087647974
0.18792251 -0.18935852 -0.17861749 0.19459058 0.33129233 0.19021302 0.21657309 0.16086785
-0.21725193 0.1796418 0.05849519 0.20450537 -0.22585417 -0.1836699 -0.22152361 -0.16447486
0.021663703 -0.023846775 -0.01833351 0.048549473 0.19700612 0.053644706 0.096431345 0.07845806
-0.02369035 0.071179874 0.07311547 0.015340641 -0.030326413 -0.06408461 -0.0331727 -0.08584144
0.33736193 -0.340777 -0.31400725 0.34831777 0.101019554 0.33996344 0.17252403 0.25076264
-0.41971722 0.30727735 0.17223886 0.41571403 -0.42766285 -0.31891233 -0.42301968 -0.2540482
-0.03890177 0.0389789 0.04183947 0.0046648853 0.2824927 0.012058588 0.15297113 0.042656016
0.042445187 0.024873052 0.06662401 -0.052465905 0.01964048 -0.020436527 0.016943587 -0.039009843
0.0034868515 -0.0058235377 -0.0016498489 0.09626829 -0.012263214 0.089741245 0.07405986 0.040885765
-0.0630983 0.054767106 0.0578854 0.07378424 -0.13702914 -0.069757596 -0.1332011 -0.026956717
-0.0045397826 0.0049562845 0.0067856773 -0.015116013 0.22707945 -0.010648022 0.0927909 0.023973696
0.019636786 0.014137533 0.043761745 -0.028890515 0.041507684 -0.0033080722 0.038615096 -0.033662215
0.4908657 -0.49137738 -0.4747701 0.016937872 -0.27269349 0.029584054 -0.4448317 0.094515696
-0.30672595 0.109346576 0.26264402 0.27301443 0.030084306 -0.06629184 0.021913126 -0.13731554
0.014322148 -0.014757095 -0.015114165 -0.09056394 -0.022158088 -0.08296344 -0.10476011 -0.03572032
0.049875677 -0.047411844 -0.030853786 -0.06098088 0.13228779 0.06290219 0.12853338 0.0215029
-0.092964545 0.09491906 0.08574801 -0.078709766 -0.1137349 -0.08313693 -0.028497025 -0.1031685
0.09216314 -0.1057677 -0.08058494 -0.08636301 0.06667159 0.09488284 0.06919685 0.11119679
-0.0019364918 0.003251926 -0.0030322848 -0.026193587 -0.21548219 -0.030720767 -0.10523381 -0.05881065
-0.001112126 -0.04777344 -0.06018813 0.010646427 0.001757685 0.03946118 0.0045095743 0.06100226
-0.08605051 0.08666242 0.0789793 -0.07436172 -0.11790479 -0.08003802 -0.033720102 -0.09810995
0.084852226 -0.10188096 -0.07928453 -0.07850043 0.06160514 0.08881891 0.060955636 0.10726122
0.024362838 -0.023441337 -0.023332864 0.05779319 -0.28242186 0.053195875 -0.10678674 0.012532103
-0.048442062 0.027120315 -0.043217693 0.05841959 -0.08804347 -0.037868198 -0.08271619 -0.009151662

rnn.bias_ih_l0 f4 [16]
00000000: a7e8 9c3c 026b 94bc 86af 8ebc b6cf 7e3c
00000010: 356e 46bd 9413 763c f9b2 7ebc 5a52 dc3c
00000020: 758b 01bc 140c 793c 3cd4 02bc 8cdb 923b
00000030: 27ea 64bc fd11 92bc aa36 52bc d033 9cbc
0.019153906 -0.018117432 -0.01741768 0.015552452 -0.048444945 0.015019316 -0.0155456 0.026894737
-0.007906784 0.015200634 -0.007985171 0.0044817384 -0.013971842 -0.017830843 -0.012830416 -0.019067675

rnn.bias_hh_l0 f4 [16]
00000000: 26ab 9a3c b485 9cbc ec99 79bc 16bd 7c3c
00000010: 23d0 4bbd 6c59 933c 2f4f 79bc 76ad ec3c
00000020: 467e 01bc 34bc 7a3c ba36 08bc d972 803b
00000030: 0b5a 67bc 40af 8fbc b657 6cbc bf3e 8fbc
0.018880438 -0.019106723 -0.015234452 0.015425941 -0.04975904 0.017986976 -0.015216633 0.028891306
-0.007903641 0.01530366 -0.008313829 0.003919941 -0.014120589 -0.01753962 -0.014425209 -0.017485974

linear.weight f4 [1, 16]
00000000: 425e d0bc 1778 da3c 5362 4b3d 8b7a 9dbe
00000010: 00ce 273e 558c 9abe 734e 7f3e f716 7ebe
00000020: e5c5 193e 3523 62be 284c 06bf 30c7 39be
00000030: 7546 a83e fd73 8b3e b826 a63e cd8f 2b3e
-0.02543557 0.026668591 0.049654316 -0.30757555 0.16387177 -0.3018519 0.2493227 -0.24813448
0.15016897 -0.22083743 -0.52459955 -0.1814239 0.32866254 0.2723693 0.32451415 0.16754074
